weights/Clip_emotion_classifier/time_2023-11-12_03-29-best.pth (torch, 25843 bytes, 2 tensors)

fc.weight f4 [8, 768]
0	0xbc3026e0	-0.010751456
1	0xbb7808f8	-0.0037847143
2	0xbd440629	-0.047857437
3	0x3dad8ad4	0.08473745
4	0xbcc08111	-0.023499044
5	0x3da04ca9	0.07827122
6	0x3cc1122f	0.02356824
7	0xbcf05f5b	-0.029342344
8	0xb9ade58b	-0.00033168154
9	0xbd053553	-0.032521557
10	0xbca37e6c	-0.019957744
11	0x3c36ee74	0.01116525
12	0xbcf646cf	-0.030063061
13	0x3dca3fb7	0.09875434
14	0x3d716806	0.058937095
15	0xbd8da3ea	-0.0691603
16	0xbbf43d45	-0.007453593
17	0xbc83cdbb	-0.01608931
18	0xbd096f62	-0.03355349
19	0xbd378ae6	-0.0448102
20	0xbd588232	-0.05285854
21	0x3d2cd182	0.04219199
22	0xbd0e0512	-0.034672804
23	0xbd0c52d3	-0.034258675
24	0x3c7fd964	0.015615795
25	0x3d0bd0a1	0.03413451
26	0xbd37ceb8	-0.044874877
27	0x3cb3a735	0.021930316
28	0xbda7da2c	-0.0819591
29	0xbcd4ea49	-0.025990622
30	0xba9db554	-0.0012032189
31	0xbc409992	-0.011755364
32	0xbd5a5f76	-0.053313695
33	0x3d97cabe	0.07411717
34	0xbd23cb37	-0.039988723
35	0xbcc7e363	-0.024400419
36	0x3c21fed2	0.009887414
37	0xbc00bddc	-0.007857766
38	0xbcc9955f	-0.024607359
39	0x3ca22db8	0.019797191
40	0x3d3d7f6b	0.046264093
41	0xbd4eb041	-0.050461058
42	0x3daba17c	0.0838041
43	0x3cb3cee0	0.021949232
44	0xbcd6235f	-0.026139913
45	0x3880ebad	6.147414e-05
46	0x3d5d0b8a	0.053966083
47	0xbd469551	-0.048482243
48	0x3dc3cb57	0.09560268
49	0x3d60eb13	0.054911684
50	0xbc72e0c2	-0.014824094
51	0x3d8a4ad5	0.06752554
52	0x3ccfd4ba	0.02536999
53	0x3d05b72c	0.03264539
54	0xbd50f62f	-0.05101603
55	0x3cbb4fe4	0.022865243
56	0x3c692f03	0.0142324
57	0x3bda4f30	0.006662272
58	0x3c5c07d1	0.013429598
59	0x3dadb39e	0.08481525
60	0xbd7d3e19	-0.0618268
61	0xbd4a299f	-0.0493561
62	0xbdde9b4e	-0.10869466
63	0x3cc31038	0.023811445
64	0x3e095c31	0.13414074
65	0xbd122560	-0.035680175
66	0x3babac29	0.005239029
67	0x3c072056	0.008247456
68	0xbdbdddae	-0.09270798
69	0xbd948ba1	-0.072531946
70	0xbd719088	-0.058975726
71	0x3d7b1420	0.06129849
72	0xbd0a0cb9	-0.03370354
73	0xbd800be0	-0.06252265
74	0xbc2e9995	-0.010656734
75	0xbc84c9ae	-0.01620945
76	0x3d5c4b95	0.05378302
77	0x3d017a8e	0.031611018
78	0xbc988f12	-0.018622909
79	0x3dac65bd	0.084178425
80	0xbd23b6f0	-0.039969385
81	0x3d17ce32	0.037061878
82	0x3c933c4d	0.01797309
83	0xbc66a7e5	-0.014078115
84	0x3c3afadd	0.0114123495
85	0x3c5a9725	0.0133417
86	0xbd5f6f07	-0.054549243
87	0x3b6d8290	0.0036241151
88	0x3e13f4f7	0.14448915
89	0xbc0d7d41	-0.00863582
90	0x3d51b090	0.051193774
91	0xbc66255a	-0.014046991
92	0x3ce9701f	0.028495846
93	0xbd801465	-0.0625389
94	0x3d8d6371	0.069037326
95	0xbcfa9fac	-0.030593716
96	0x3d913574	0.070902735
97	0x3d19eb80	0.037578106
98	0xbcb721a1	-0.022354903
99	0xbcb6f62b	-0.022334179
100	0x3d3561c1	0.04428268
101	0xbc290a21	-0.010317356
102	0x3c5c9255	0.013462623
103	0xbd9c8939	-0.07643361
104	0x3c83b187	0.016075863
105	0xbe3948e4	-0.18094212
106	0x3d865c59	0.06560583
107	0xbcc8b286	-0.02449919
108	0x3d9dd25b	0.07706138
109	0xbb5c8869	-0.0033650643
110	0xbc146a14	-0.009058494
111	0xbcb147f7	-0.02164076
112	0x3cf585ca	0.029971022
113	0x3d315133	0.04329033
114	0xbbd8655a	-0.006603879
115	0x3dbf9476	0.093544886
116	0xbbda1a6b	-0.0066559813
117	0x3c0cc175	0.008591046
118	0xbdcc4d1d	-0.09975646
119	0x3bc8e37b	0.0061306334
120	0x3d1268c6	0.03574445
121	0xbd373648	-0.0447295
122	0x3b950e9c	0.0045488607
123	0x3ba73a25	0.005103367
124	0xbd330aa8	-0.043711334
125	0xbcdccb71	-0.026952477
126	0x3d03b424	0.032154217
127	0x3d3313b2	0.043719955
128	0xbda8d50c	-0.082437605
129	0xbd6e4613	-0.058172297
130	0xbd51f7a1	-0.051261548
131	0xbd90539d	-0.07047198
132	0x3bcd0f17	0.0062579024
133	0xbdcfa59b	-0.101390086
134	0x3d859076	0.06521694
135	0xbe687bb1	-0.22703435
136	0x3d965b4c	0.07341632
137	0xbdb004e4	-0.08594683
138	0xbb65792e	-0.0035014856
139	0x3c84b058	0.016197369
140	0xbda11a79	-0.078663774
141	0xbcc33ea8	-0.023833588
142	0xbd298cc8	-0.041394025
143	0xbd9d65c6	-0.07685427
144	0xbcd21d5b	-0.025648763
145	0xbca299be	-0.0198487
146	0xbd487df3	-0.04894824
147	0x3e44fe78	0.19237697
148	0xbc831e13	-0.016005551
149	0x3d18178e	0.03713184
150	0xba16a968	-0.00057472894
151	0xbcfaeca0	-0.03063041
152	0x3d067270	0.03282398
153	0xbc4504ee	-0.012025101
154	0xbb2d8f52	-0.002648313
155	0xbb53c2dc	-0.003231219
156	0xbac58743	-0.0015070218
157	0x3d95a2ec	0.073064655
158	0xbcc0e8f4	-0.02354858
159	0x3cf14689	0.02945258
160	0x3d8e0dd8	0.06936234
161	0x3c61be60	0.013778299
162	0xbdc86710	-0.097852826
163	0xbd6eeb9f	-0.058330175
164	0x3c72b97e	0.014814733
165	0x3d08a5f0	0.033361375
166	0x3d2c82b7	0.042116847
167	0xbb9ca2dd	-0.004780157
168	0xbb995e85	-0.004680457
169	0xbd7401ea	-0.059572138
170	0xbcdc8497	-0.026918693
171	0xbd90bf82	-0.07067777
172	0x3c97fdfc	0.018553726
173	0xbc816f69	-0.015800195
174	0x3c9dd233	0.01926527
175	0xbcba2d9f	-0.022726832
176	0xbc6b4f06	-0.014362102
177	0xbcbb5aae	-0.022870388
178	0xbcd15942	-0.025555257
179	0xbd03d7f1	-0.03218836
180	0x3dcd870a	0.10035522
181	0x3d64dfa0	0.055877328
182	0xbd37d406	-0.044879936
183	0xba841db3	-0.0010079652
184	0xbc833582	-0.016016725
185	0x3d12a96d	0.03580611
186	0x3d0d9fb4	0.034576133
187	0xbd50b330	-0.050952137
188	0xbd9dc7e0	-0.07704139
189	0xbb040a0f	-0.0020147597
190	0xbd2e5f66	-0.042571448
191	0x3d9618d7	0.073289566
192	0x3c8f1edb	0.017470768
193	0x3bab0b58	0.005219858
194	0xbc86e562	-0.0164668
195	0xbcdb0cac	-0.02673944
196	0xbacb7a8b	-0.0015524192
197	0x3dae9aed	0.085256435
198	0xbc740809	-0.014894494
199	0x3d74701b	0.059677225
200	0xbc427a42	-0.011869969
201	0x3c1df3ec	0.009640675
202	0x3cb7322b	0.02236279
203	0xbd514e0d	-0.051099826
204	0x3ac24f00	0.0014824569
205	0xbc744601	-0.014909268
206	0xbd534c7e	-0.05158662
207	0xbd30ed18	-0.04319486
208	0x3ce6afa4	0.028159924
209	0xbd20e41d	-0.039280046
210	0x3bfb46ca	0.007668351
211	0x3d058138	0.032593936
212	0x3c981081	0.018562557
213	0xbd2b2394	-0.041781977
214	0x3d59f0a5	0.053208012
215	0x3d07f5b9	0.033193324
216	0xbc3ffa2f	-0.011717363
217	0xbd201383	-0.039081108
218	0x3d31eea6	0.043440484
219	0xbd94bccb	-0.07262572
220	0x3d9039e1	0.070422895
221	0x3d77d25b	0.060503345
222	0x3dc6cc03	0.09706881
223	0x3d206ea7	0.039168026
224	0xbbd7a054	-0.006580392
225	0x3cbf3562	0.023340885
226	0x3d6be325	0.05758967
227	0x3d261986	0.040551685
228	0xbac1afb6	-0.0014777097
229	0xbd65355b	-0.055959087
230	0xbce94e3a	-0.028479684
231	0xbc297440	-0.010342658
232	0xbd61b88a	-0.05510763
233	0x3e2eeae8	0.17081797
234	0xbd776165	-0.060395617
235	0x39d38a9e	0.00040348334
236	0x3d4cf3b8	0.050037116
237	0xbcb68e30	-0.022284597
238	0xbb253a5d	-0.002521179
239	0x3d4643b1	0.0484044
240	0x3bb655fc	0.0055644494
241	0x3ce9126d	0.028451169
242	0xbc27e97a	-0.010248536
243	0x3b3e41f6	0.0029031015
244	0xbcb000e5	-0.021484802
245	0xbd7c0401	-0.061527256
246	0xbd0981d2	-0.033571072
247	0xbe0ee61e	-0.1395497
248	0xbcde52cd	-0.027139092
249	0xbd44308d	-0.047897864
250	0xbc5a4532	-0.0133221615
251	0x3ca75361	0.0204255
252	0xbda3a72e	-0.07990871
253	0xbbede25e	-0.007259651
254	0xbc81d97e	-0.015850779
255	0xbd88303a	-0.066498235

fc.bias f4 [8]
0	0x3c2e7188	0.010647185
1	0x39505c49	0.00019870805
2	0x3ccbc637	0.02487479
3	0x3c18e1a3	0.00933114
4	0x3c1b5840	0.00948149
5	0x3c0bc407	0.008530623
6	0xbc50e9b4	-0.012751032
7	0xbd04cc3c	-0.032421336
